…
l_acc * 100}% validation accuracy&quot;) runs[0].file(&quot;model-best.h5&quot;).download(replace=True) print(&quot;Best model saved to model-best.h5&quot;) . Best run gallant-sweep-26 with 99.00000095367432% validation accuracy Best model saved to model-best.h5 . Load the model . model = tf.keras.models.load_model(&#39;model-best.h5&#39;) # Show the model architecture model.summary() . Model: &#34;sequential&#34; _________________________________________________________________ Layer (type) Output Shape Param # ================================================================= conv2d (Conv2D) (None, 64, 64, 32) 896 _________________________________________________________________ batch_normalization (BatchNo (None, 64, 64, 32) 128 _________________________________________________________________ dropout (Dropout) (None, 64, 64, 32) 0 _________________________________________________________________ conv2d_1 (Conv2D) (None, 64, 64, 64) 18496 _________________________________________________________________ batch_normalization_1 (Batch (None, 64, 64, 64) 256 _________________________________________________________________ max_pooling2d (MaxPooling2D) (None, 32, 32, 64) 0 _________________________________________________________________ conv2d_2 (Conv2D) (None, 32, 32, 128) 73856 _________________________________________________________________ batch_normalization_2 (Batch (None, 32, 32, 128) 512 _________________________________________________________________ dropout_1 (Dropout) (None, 32, 32, 128) 0 _________________________________________________________________ conv2d_3 (Conv2D) (None, 32, 32, 128) 147584 _________________________________________________________________ batch_normalization_3 (Batch (None, 32, 32, 128) 512 _________________________________________________________________ max_pooling2d_1 (MaxPooling2 (None, 16, 16, 128) 0 _________________________________________________________________ conv2d_4 (Conv2D) (None, 16, 16, 256) 295168 _________________________________________________________________ batch_normalization_4 (Batch (None, 16, 16, 256) 1024 _________________________________________________________________ dropout_2 (Dropout) (None, 16, 16, 256) 0 _________________________________________________________________ conv2d_5 (Conv2D) (None, 16, 16, 256) 590080 _________________________________________________________________ batch_normalization_5 (Batch (None, 16, 16, 256) 1024 _________________________________________________________________ max_pooling2d_2 (MaxPooling2 (None, 8, 8, 256) 0 _________________________________________________________________ conv2d_6 (Conv2D) (None, 8, 8, 512) 1180160 _________________________________________________________________ batch_normalization_6 (Batch (None, 8, 8, 512) 2048 _________________________________________________________________ dropout_3 (Dropout) (None, 8, 8, 512) 0 _________________________________________________________________ conv2d_7 (Conv2D) (None, 8, 8, 512) 2359808 _________________________________________________________________ batch_normalization_7 (Batch (None, 8, 8, 512) 2048 _________________________________________________________________ max_pooling2d_3 (MaxPooling2 (None, 4, 4, 512) 0 _________________________________________________________________ conv2d_8 (Conv2D) (None, 4, 4, 1024) 4719616 _________________________________________________________________ batch_normalization_8 (Batch (None, 4, 4, 1024) 4096 _________________________________________________________________ dropout_4 (Dropout) (None, 4, 4, 1024) 0 _________________________________________________________________ conv2d_9 (Conv2D) (None, 4, 4, 1024) 9438208 _________________________________________________________________ batch_normalization_9 (Batch (None, 4, 4, 1024) 4096 _________________________________________________________________ max_pooling2d_4 (MaxPooling2 (None, 2, 2, 1024) 0 _________________________________________________________________ flatten (Flatten) (None, 4096) 0 _________________________________________________________________ dense (Dense) (None, 512) 2097664 _________________________________________________________________ batch_normalization_10 (Batc (None, 512) 2048 _________________________________________________________________ dropout_5 (Dropout) (None, 512) 0 _________________________________________________________________ dense_1 (Dense) (None, 20) 10260 ================================================================= Total params: 20,949,588 Trainable params: 20,940,692 Non-trainable params: 8,896 _________________________________________________________________ . Make some predictions with the model . def get_prediction(x, y): # Resize image and normalize it pic = cv2.resize(x, (64, 64)).astype(&#39;float32&#39;) if pic.max() &gt; 1.: pic = pi
…
